scripts/mlruns/0/ec78c33154234114899a2385f9af730c/artifacts/model/data/model.pth (torch, 754690 bytes, 27 tensors)

weight_ih_l0 f4 [256, 3]
0	0x3cc2d44e	0.023782875
1	0xbd58fe12	-0.052976675
2	0x3c636ad2	0.013880448
3	0xbdf60988	-0.12013537
4	0x3d43da29	0.047815476
5	0xbdd5aaba	-0.10432954
6	0x3dc2f64e	0.09519635
7	0x3de311a2	0.110873476
8	0xbd972130	-0.07379377
9	0xbd29b945	-0.041436452
10	0x3dfc5e7e	0.123227105
11	0x3e001d5b	0.12511198
12	0xbcf966c9	-0.03044452
13	0x3d16b7f0	0.03679651
14	0xbd0ccc37	-0.034374442
15	0x3daf5a90	0.08562195
16	0xbcaf2f2a	-0.021384794
17	0x3c9adf25	0.018905232
18	0xbd459679	-0.048239205
19	0xbc9fdb9d	-0.0195139
20	0xbc21a497	-0.009865901
21	0xbdc627ac	-0.096755356
22	0x3d4265bb	0.0474603
23	0x3d770fcf	0.06031781
24	0xbd810a4a	-0.063007906
25	0xbda84b9f	-0.082175486
26	0xbe025831	-0.12728955
27	0x3d37813a	0.044800974
28	0xbd7cc135	-0.061707694
29	0x3c63d179	0.013904923
30	0x3dbde72f	0.092726104
31	0x3d6e7b45	0.058223028
32	0x3db3543a	0.08756299
33	0x3db34c9b	0.08754846
34	0xbce21a63	-0.027600473
35	0x3d981f3e	0.07427834
36	0x3dee80d5	0.116456665
37	0x3cb3de4a	0.021956582
38	0x3e060b69	0.1309029
39	0x3cf08708	0.029361263
40	0xbd971f0b	-0.07378968
41	0xbd7121d5	-0.058870155
42	0xbe1a7ef6	-0.15087494
43	0xbb57e48e	-0.0032942626
44	0xbda817e3	-0.08207681
45	0xba8f846e	-0.0010949501
46	0xbdc73d2b	-0.09728464
47	0xbdd5ad5d	-0.10433457
48	0xbda24303	-0.07922938
49	0x3ca4df57	0.020126028
50	0xbc460370	-0.0120857805
51	0x3d0ceaa2	0.03440345
52	0x3ce22f1c	0.027610354
53	0xbcf7b068	-0.030235484
54	0xbba5994e	-0.0050536757
55	0xbd09ec82	-0.033672817
56	0xbd9c5b78	-0.07634634
57	0xbd9058fb	-0.07048222
58	0xbdd5c5c0	-0.104381084
59	0xbd18b756	-0.037284218
60	0xbd806f77	-0.0627126
61	0xbdda4ada	-0.10658808
62	0x3d960af1	0.07326306
63	0x3dbd0023	0.09228542
64	0xbda2a6b9	-0.07941956
65	0xbc2b99b1	-0.010473655
66	0x3dbb475d	0.09144471
67	0xbdbd517d	-0.09244058
68	0xbdaecfe8	-0.08535749
69	0x3df854bd	0.121255375
70	0x3de20405	0.11035923
71	0xbd3122f3	-0.04324622
72	0xbd354264	-0.04425277
73	0x3c679712	0.014135139
74	0x3c8b136b	0.016977033
75	0x3db7d5eb	0.089763485
76	0xbddf616a	-0.10907252
77	0x3d987612	0.07444395
78	0xbd8b1a82	-0.06792165
79	0xbd8eb3a7	-0.0696786
80	0xbdb1928f	-0.08670532
81	0xbe076998	-0.13223875
82	0xbdbbab54	-0.091635376
83	0xbb2088cb	-0.0024495597
84	0x3d8eff58	0.06982297
85	0xbcc41cc2	-0.023939494
86	0xbd2a580a	-0.041587867
87	0xbd438e01	-0.047742847
88	0xbcb6e61d	-0.022326523
89	0xbbe27519	-0.006910932
90	0xbd069914	-0.03286083
91	0x3dcb5381	0.099280365
92	0x3d4f6c6b	0.050640505
93	0x3d306e81	0.043074135
94	0xbdae830a	-0.085210875
95	0xbded274d	-0.11579762
96	0xbd7acfbc	-0.061233267
97	0x3bfebd31	0.007774018
98	0x3d61dd83	0.05514289
99	0xbbbbc01d	-0.005729689
100	0x3cc956a9	0.024577456
101	0x3de943e3	0.113899015
102	0xbdc4042a	-0.09571107
103	0x3caee31c	0.021348529
104	0x3c704183	0.014664057
105	0x3dac31ec	0.08407959
106	0x3cebd5bb	0.028788438
107	0x3d981e75	0.07427684
108	0xbe20b2c5	-0.15693195
109	0x3d538a25	0.051645417
110	0x3c86b33e	0.016442891
111	0x3d570e6a	0.05250398
112	0xbd813b78	-0.06310171
113	0xbd2f6b49	-0.042826924
114	0x3db75a9d	0.0895283
115	0xbc982a55	-0.018574873
116	0x3d06679d	0.032813657
117	0xbdd6910b	-0.104768835
118	0x3d352ef7	0.044234242
119	0xbd43caaa	-0.047800697
120	0x3d9f333d	0.07773445
121	0x3dbfb21f	0.09360146
122	0xbdf97d84	-0.12182143
123	0xbdabde61	-0.08392025
124	0xbd20d402	-0.039264686
125	0xbd794745	-0.060858984
126	0xbdc25ed0	-0.0949074
127	0xbd429761	-0.047507647
128	0xbdc7aaa4	-0.09749344
129	0x3d8777e5	0.06614665
130	0x3d38b7c0	0.045097113
131	0x3d0413e3	0.032245528
132	0x3d8bfa01	0.06834794
133	0x3c8ad05c	0.016945057
134	0xbca82dac	-0.02052959
135	0x3d92e6b3	0.07172909
136	0xbcf065eb	-0.029345473
137	0x3db6554c	0.08902988
138	0xbd9d576c	-0.0768269
139	0xbdcca247	-0.099918894
140	0xbd88f2c3	-0.06686928
141	0xbd69a930	-0.057046115
142	0x3def19f9	0.11674876
143	0x3cd72bd6	0.02626602
144	0xbc8f0af7	-0.017461283
145	0x3dc65376	0.09683888
146	0xbcb5f9d8	-0.022213861
147	0xbe1494ca	-0.14509884
148	0xbdf0f729	-0.11765892
149	0xbd74b3f0	-0.059741914
150	0xbbc5fb94	-0.0060419533
151	0x3dc293fa	0.095008805
152	0x3d0759ec	0.03304474
153	0xbc07993a	-0.008276278
154	0xbd11e415	-0.035617907
155	0x3df09f05	0.117490806
156	0xbdf8336c	-0.12119183
157	0xbd07c615	-0.03314789
158	0x3dc6ade8	0.09701139
159	0xbdbbe467	-0.09174424
160	0xbdcff304	-0.101537734
161	0x3d99efe3	0.07516458
162	0x3b0bef4a	0.0021352344
163	0xbcbbeabd	-0.02293908
164	0x3da62a65	0.08113555
165	0xbdda3b02	-0.10655786
166	0x3c0eb60b	0.008710395
167	0x3baaddd3	0.005214432
168	0x3df85f0b	0.12127503
169	0x3cc5f80b	0.024166128
170	0x3b3e71d2	0.0029059541
171	0x3d37f8a3	0.044914853
172	0xbc044e97	-0.008075378
173	0x3d9ac368	0.07556802
174	0x3d885f3d	0.0665879
175	0x3d1021c2	0.035188444
176	0x3dcd33b4	0.10019627
177	0x3d7b3114	0.0613261
178	0x3d9da444	0.07697347
179	0xbdf8d607	-0.121501975
180	0x3e03a6f2	0.12856653
181	0x3db04ee1	0.08608795
182	0x3db1d098	0.08682364
183	0x3db6dfa6	0.08929376
184	0xbb7c4450	-0.0038492866
185	0x3d1537c0	0.03643012
186	0x3d6bf26b	0.057604235
187	0xbd43589b	-0.047691923
188	0x3c2dd0dc	0.010608878
189	0x3d7fa4c9	0.06241301
190	0x3def920e	0.116977796
191	0xbd86c012	-0.06579603
192	0x3d16bd51	0.03680164
193	0x3d237d24	0.039914265
194	0xbd193673	-0.037405442
195	0xbc66a44b	-0.014077256
196	0xbde3b414	-0.111183316
197	0xbd46f908	-0.04857734
198	0x3dfd85c2	0.12379028
199	0x3d5eb30d	0.054369975
200	0xbc6b65cd	-0.014367533
201	0xbc844297	-0.016145034
202	0xbd397f59	-0.045287464
203	0x3d81efc8	0.06344563
204	0xbde2fcca	-0.11083372
205	0x3d4abeb3	0.04949827
206	0xbdd87d9e	-0.105708346
207	0xbcbce025	-0.0230561
208	0xbd8165f6	-0.06318276
209	0x3de35a2d	0.11101184
210	0x3e01eccb	0.12687986
211	0xbc50997c	-0.012731906
212	0xbcb246b3	-0.021762228
213	0x3cefcc2a	0.029272158
214	0xbcf84ce8	-0.03031011
215	0x3c9ad754	0.018901505
216	0xbd8d501f	-0.069000475
217	0x3c8b0059	0.01696794
218	0xbcf2aef6	-0.029624444
219	0xbd12ee5e	-0.035871856
220	0xbe07e818	-0.1327213
221	0xbda9c549	-0.08289582
222	0xbd8fae2f	-0.07015645
223	0xbc813add	-0.015775139
224	0xbd221666	-0.039572142
225	0x3da90bc1	0.08254195
226	0x3dbf7218	0.093479335
227	0xbd8f9c20	-0.070122
228	0xbcb64eaf	-0.022254316
229	0xbc9f220b	-0.019425413
230	0x3e005d28	0.12535536
231	0x3dd2b284	0.102879554
232	0x3d721ae4	0.059107676
233	0x3d9c598d	0.07634268
234	0x3dab2de7	0.083583646
235	0xbd5a34bc	-0.053272948
236	0xbdb28d31	-0.087183364
237	0xbe0526af	-0.13003038
238	0x3cc0d21a	0.023537684
239	0x3d60977d	0.05483197
240	0xbddfd979	-0.109301515
241	0x3d97b5e7	0.07407742
242	0x3dc0bdc2	0.094111934
243	0xbd0d3ff5	-0.034484822
244	0xbd465215	-0.048418123
245	0xbdd77d1f	-0.10521912
246	0xbd8f01bd	-0.069827534
247	0x3da4bf0e	0.08044253
248	0xbd906c69	-0.070519276
249	0x3d74217f	0.059602257
250	0xbc1bf154	-0.009517986
251	0xbd55d39a	-0.052203752
252	0xbcfe108a	-0.031013746
253	0x3d483c89	0.048885856
254	0xbd9f6132	-0.077822104
255	0xbd96844c	-0.073494524

weight_hh_l0 f4 [256, 64]
0	0x3dc3d677	0.0956239
1	0xbdc6bcec	-0.09704003
2	0xbd0aa4d3	-0.033848595
3	0xbdbaedd1	-0.09127391
4	0x3d56dcb7	0.052456584
5	0x3dc4359a	0.09580536
6	0x3c751fd9	0.014961206
7	0x3c9a6a43	0.018849498
8	0xbdae2ca9	-0.08504612
9	0xbde04807	-0.10951238
10	0xbdce105b	-0.10061713
11	0x3d88ee21	0.066860445
12	0x3d208f41	0.039199118
13	0xbdc34aa2	-0.095357195
14	0x3d850ac1	0.06496192
15	0x3c63e63a	0.013909871
16	0x3df87690	0.12131989
17	0xbd165672	-0.036703534
18	0x3dac15b9	0.08402581
19	0x3d16c7f6	0.03681179
20	0xbd3f6120	-0.046723485
21	0x3dd1ca51	0.10243667
22	0x3ddbfb7b	0.107413255
23	0xbd32f66e	-0.043692045
24	0x3d83a2de	0.06427549
25	0x3dbbd5bf	0.09171628
26	0xbd6f0155	-0.05835088
27	0x3d6cde37	0.057829108
28	0xbd7426c3	-0.05960728
29	0xbd6f7279	-0.05845878
30	0x3dfced35	0.12349931
31	0xbc4fe118	-0.012687944
32	0x3dee9c22	0.11650874
33	0xbd9343d7	-0.07190674
34	0x3dc15d5c	0.09441635
35	0x3c85cf09	0.016334074
36	0x3ddaab1a	0.10677166
37	0xbce85ef4	-0.02836559
38	0xbd74d9f5	-0.059778173
39	0xbb3d2b6e	-0.0028864997
40	0xbdb0e504	-0.08637431
41	0xbdee1c8a	-0.11626537
42	0xbd8d563e	-0.06901215
43	0xbd37d7bb	-0.04488347
44	0x3d1578bf	0.036492106
45	0xbd78f286	-0.060778163
46	0xbd9aaa83	-0.07552054
47	0x3d412df6	0.047162972
48	0x3ca7beef	0.020476786
49	0x3c839bc3	0.016065484
50	0x3d0483ec	0.032352373
51	0xbd9db0af	-0.07699715
52	0xbbcd5004	-0.006265642
53	0xbda2eda7	-0.07955485
54	0xbc4680ee	-0.0121157
55	0xbd0eabd1	-0.034831826
56	0x3dd0442f	0.10169255
57	0xbd67620d	-0.056489993
58	0x3c08af17	0.008342526
59	0x3ccf682a	0.025318224
60	0x3db808fa	0.08986087
61	0xbcdaf899	-0.026729869
62	0xbd8ded5b	-0.069300376
63	0xbd98f1c6	-0.074679896
64	0xbda8d04e	-0.08242856
65	0x3cd20b8a	0.025640268
66	0x3d499a17	0.049219217
67	0xbe019711	-0.12655284
68	0xbbc96a34	-0.0061466936
69	0xbdc153a1	-0.09439779
70	0xbd6f9021	-0.05848706
71	0xbd0a16d4	-0.033713177
72	0x3d959ac1	0.073049076
73	0xbdae793e	-0.08519219
74	0x3d96267f	0.07331561
75	0x3dbb72ff	0.09152793
76	0x3cdb8eec	0.026801549
77	0x3c742256	0.014900764
78	0xbd964a3e	-0.07338379
79	0x3baf6a71	0.005353265
80	0xbdff60ce	-0.12469636
81	0x3c9ebe86	0.019377958
82	0x3ca17044	0.019706853
83	0xbded56a6	-0.115887925
84	0x3d80d990	0.06291497
85	0xbde577fc	-0.11204526
86	0xbdb539b2	-0.08848895
87	0xbcfec531	-0.031099888
88	0xbd811541	-0.06302882
89	0xbbd72346	-0.006565484
90	0xbcd4e06e	-0.025985923
91	0xbd71de9e	-0.059050195
92	0x3dde1dc4	0.10845521
93	0xbd5785c3	-0.0526178
94	0xbd5480ea	-0.051880755
95	0xbdfc7df5	-0.12328712
96	0xbccf48a9	-0.025303202
97	0x3d63603c	0.055511698
98	0xbcfdd20d	-0.03098395
99	0x3e06c162	0.13159707
100	0xbbbe551b	-0.005808485
101	0xbcceaea7	-0.025229765
102	0xbd7db94f	-0.061944302
103	0xbd222419	-0.039585207
104	0x3c508fc6	0.012729591
105	0xbdd8c10c	-0.10583696
106	0xbc9f06b1	-0.01941237
107	0xbd25c5b4	-0.040471748
108	0xbcf28fc4	-0.029609568
109	0xbdf942c2	-0.12170936
110	0x3a3e7b38	0.0007266286
111	0x3d67bdd6	0.056577526
112	0xbe0f2ad0	-0.13981175
113	0xbe24d1d4	-0.16095668
114	0x3d4936db	0.04912458
115	0xbe022659	-0.12709941
116	0x3dd1e074	0.10247889
117	0xbd96d5fb	-0.07365032
118	0x3dcf1ab9	0.10112519
119	0xbd0bb902	-0.034111984
120	0x3dbc03ce	0.09180413
121	0x3b7189b1	0.0036855752
122	0x3c66fc9e	0.014098315
123	0x3d6a8f4d	0.05726557
124	0x3da58859	0.08082647
125	0x3d321183	0.04347373
126	0xbd5ba8ee	-0.0536279
127	0x3d84eede	0.06490873
128	0xbdb811de	-0.08987783
129	0x3d7bb76e	0.06145423
130	0xbdce804c	-0.100830644
131	0xbe04533e	-0.1292238
132	0xbc87832c	-0.01654204
133	0x3d330bc1	0.04371238
134	0xbdb80fc0	-0.08987379
135	0x3c24ec2a	0.0100660715
136	0xbd6a1657	-0.05715021
137	0x3d578287	0.052614715
138	0x3d84e003	0.06488039
139	0xbdfa3708	-0.12217528
140	0xbc327405	-0.010891919
141	0xbda8ba88	-0.08238703
142	0xbd126e87	-0.03574994
143	0xbc2a4aa6	-0.010393774
144	0x3b57c6bf	0.0032924858
145	0x3d48509d	0.048905004
146	0xbd661e1f	-0.05618107
147	0x3e0f316c	0.13983697
148	0x3dd3a26c	0.10333714
149	0xbd304eb1	-0.043043796
150	0xbd54cb4f	-0.051951703
151	0x3c0a4ebc	0.008441623
152	0xbd96228d	-0.07330809
153	0x3dab36aa	0.08360036
154	0x3cc3be47	0.023894442
155	0x3c6591b8	0.014011793
156	0x3db24fac	0.087066025
157	0xbd756bab	-0.059917133
158	0xbda6ea4e	-0.08150159
159	0xbb8c4f03	-0.00428188
160	0x3da9eb1b	0.08296796
161	0x3c8cf0c3	0.017204648
162	0x3d6bfbe6	0.057613276
163	0x3dc1801a	0.094482616
164	0xbd8e2370	-0.06940353
165	0x3e105da3	0.1409822
166	0x3e1ed8f0	0.15512443
167	0x3d5e8f28	0.054335743
168	0xbdaaf557	-0.08347576
169	0xbddf3b21	-0.1089995
170	0xbd9047af	-0.070449226
171	0xbd249fd8	-0.0401915
172	0xbdeca3c7	-0.115546755
173	0x3d591104	0.052994743
174	0xbcc2deb6	-0.023787837
175	0x3d406780	0.046973705
176	0x3db5b0f4	0.08871642
177	0xbdcb5e03	-0.09930041
178	0xbc6b410f	-0.014358773
179	0x3d591e40	0.053007364
180	0x3d69ca15	0.057077486
181	0xbd54fa15	-0.05199631
182	0xbd20dee5	-0.03927507
183	0x3e1a57f0	0.15072608
184	0x3da8fa70	0.08250892
185	0xbdc60e5e	-0.09670709
186	0xbdf1fe92	-0.118161336
187	0x3deeb1ab	0.11654981
188	0xbd95bff9	-0.073120065
189	0xbe17bbba	-0.14817706
190	0xbd278f28	-0.04090801
191	0xbe18abeb	-0.14909332
192	0xbdc91162	-0.09817769
193	0x3de4945a	0.11161108
194	0x3dbedc83	0.09319403
195	0x3dd73435	0.105080046
196	0x3d6aadbb	0.05729459
197	0xbd5ebf18	-0.05438146
198	0x3ddded7c	0.10836312
199	0xbc7702a9	-0.015076318
200	0x3ca06a6c	0.019581996
201	0xbb449861	-0.0029998051
202	0x3d7e4fa3	0.062087666
203	0x3ccb4d4c	0.024817131
204	0xbde539dc	-0.111926764
205	0x3d5b5d1b	0.05355559
206	0x3d8436dd	0.06455777
207	0xbda41b46	-0.080130145
208	0x3db8099a	0.08986206
209	0xbdc93b13	-0.09825721
210	0x3d79ad6b	0.0609564
211	0xbbccc6c9	-0.006249283
212	0xbdc24ade	-0.09486936
213	0xbda325f5	-0.07966224
214	0xbd13e6cd	-0.03610878
215	0x3c9335f4	0.017970063
216	0xbdbc6b29	-0.09200127
217	0xbdd3a111	-0.10333455
218	0xbddf0ae6	-0.108907506
219	0x3c3c51f2	0.011494147
220	0x3dd22e16	0.102626964
221	0x3d85b33a	0.065283254
222	0xbd594a3a	-0.053049304
223	0xbbf8846b	-0.007584145
224	0xbd35a455	-0.044346172
225	0x3ce59c40	0.028028607
226	0x3db81cd9	0.08989877
227	0xbd32c41e	-0.043644063
228	0x3d0d91fc	0.03456305
229	0x3d2138fa	0.039360978
230	0x3d07d5af	0.03316277
231	0xbc48e626	-0.012261903
232	0x3dbd67e2	0.0924833
233	0x3d8f1ad2	0.069875374
234	0x3db81dd8	0.08990067
235	0x3d195d36	0.03744241
236	0x3ce62259	0.02809255
237	0x3db54563	0.08851125
238	0xbd89b1a9	-0.06723339
239	0xbdbde674	-0.09272471
240	0xbdde21d0	-0.10846293
241	0xbcd63eac	-0.026152931
242	0x3dab428b	0.083623014
243	0xbd381439	-0.04494116
244	0xbc89c2c7	-0.01681651
245	0xbd2a60f3	-0.041596364
246	0x3c8ccabc	0.017186515
247	0xbc482006	-0.012214666
248	0xbde875df	-0.11350607
249	0xbce5fcbc	-0.028074615
250	0xbd4e053d	-0.050297964
251	0xbc766924	-0.015039716
252	0x3ddd5b7f	0.10808467
253	0x3c45b335	0.012066652
254	0xbde188dc	-0.11012432
255	0xbd5ae2cb	-0.053438943

bias_ih_l0 f4 [256]
0	0x3d0f8c9d	0.03504621
1	0x3d966236	0.07342951
2	0xbd8ff875	-0.07029811
3	0xbd91afe2	-0.07113625
4	0x3e06daf3	0.1316946
5	0xbd8db808	-0.06919867
6	0xbdbd5822	-0.092453256
7	0x3cd18e34	0.025580503
8	0xbb29b294	-0.0025893794
9	0x3d263c79	0.040585015
10	0xbd3ab8c5	-0.045586366
11	0xb7665f8c	-1.37313145e-05
12	0xbc169c29	-0.009192505
13	0xbdd7ffe2	-0.10546853
14	0xbd5d7fd5	-0.05407699
15	0x3dc1500d	0.094390966
16	0x3d7d0c48	0.06177929
17	0xbcfb443d	-0.030672187
18	0x3db31938	0.087450445
19	0xbd0b8e15	-0.034071047
20	0xbd58da63	-0.052942645
21	0x3d46825e	0.04846417
22	0xbbdafa21	-0.0066826497
23	0x3d5e46e5	0.05426683
24	0x3d4c3feb	0.049865644
25	0xbd13b75f	-0.03606355
26	0x3e0780f8	0.13232791
27	0xbc836cf5	-0.016043166
28	0xbd30879f	-0.04309809
29	0xbceffae0	-0.029294431
30	0x3c137871	0.009000883
31	0x3db893fd	0.090126015
32	0xbda6ee65	-0.08150939
33	0x3cf2f680	0.029658556
34	0xbc45a43a	-0.01206308
35	0x3d487c67	0.048946764
36	0xbde96b62	-0.11397435
37	0xbc1d0603	-0.009583953
38	0x3d7718bc	0.060326323
39	0x3d37be63	0.0448593
40	0x3d1be536	0.03806039
41	0x3d936058	0.071961105
42	0x3d86be76	0.06579296
43	0xbdd419bb	-0.1035647
44	0x3db37eda	0.087644294
45	0xbd484c50	-0.048900902
46	0xbdc9ce80	-0.0985384
47	0xbd896fb2	-0.06710757
48	0x3d49031e	0.04907524
49	0x3c97d341	0.01853335
50	0xbd7cb4de	-0.061695926
51	0x3de9487d	0.11390779
52	0xbcb16c07	-0.021657957
53	0x3db431a1	0.087985285
54	0xbcb76368	-0.022386268
55	0x3c7585e9	0.01498554
56	0xbd608610	-0.054815352
57	0x3d522621	0.051305894
58	0x3ccb9528	0.024851397
59	0xbdd8e222	-0.105900064
60	0xbd10a6c6	-0.035315298
61	0x3d9136d2	0.07090534
62	0xbd634a97	-0.055491056
63	0xbd5567e3	-0.052101027
64	0xbda02853	-0.07820191
65	0xbcbcac44	-0.023031361
66	0x3db1d3fa	0.086830094
67	0xbcb074c3	-0.021540051
68	0xbdba2bab	-0.0909036
69	0x3dabfe16	0.083980724
70	0x3b83d440	0.004023105
71	0x3cbbdeb7	0.022933347
72	0xbdab295e	-0.083574995
73	0xbd58d51e	-0.05293762
74	0xbd91835d	-0.07105134
75	0xbd77b7a7	-0.06047788
76	0x3d04edf1	0.03245348
77	0x3cff9de7	0.031203223
78	0x3d2e11a4	0.042497292
79	0xbe0462b6	-0.1292828
80	0x3ca6e80e	0.020374324
81	0xbd214036	-0.039367877
82	0x3de02546	0.10944609
83	0xbd8edb7f	-0.06975459
84	0xbdf72328	-0.120672524
85	0x3dac3855	0.08409182
86	0xbd921de1	-0.07134605
87	0xbd2190c6	-0.039444707
88	0x3dc8123c	0.09769103
89	0x3d813402	0.06308748
90	0x3da566dd	0.0807626
91	0xbcddb804	-0.027065285
92	0xbd921fd2	-0.071349755
93	0x3de151ba	0.11001916
94	0xbd6fde63	-0.058561694
95	0x3ccaf16c	0.024773322
96	0xbdd32878	-0.10310453
97	0xbb8df3e8	-0.0043320544
98	0x3d96beb3	0.07360592
99	0x3cb25c1c	0.021772437
100	0x3d83ac39	0.06429333
101	0x3dc7005d	0.09716866
102	0xbdc4b78c	-0.09605321
103	0xbda2009a	-0.07910271
104	0xbd18f28c	-0.037340686
105	0x3da61063	0.08108594
106	0x3d863728	0.06553489
107	0x3e06e2d8	0.13172472
108	0x3de11bd7	0.10991638
109	0x3e073d7b	0.13207047
110	0x3d4379b9	0.047723506
111	0x3db1d78f	0.08683693
112	0xbc04945b	-0.008092011
113	0xbd99cab2	-0.07509364
114	0x3c979aeb	0.018506488
115	0x3ddca7f6	0.107742235
116	0x3d554b03	0.05207349
117	0x3de977db	0.11399814
118	0x3e03b506	0.12862024
119	0xbdbd53f2	-0.09244527
120	0xbd90c066	-0.07067947
121	0xbdaa71e8	-0.08322507
122	0x3dde0d8a	0.10842426
123	0x3d4df75b	0.050284725
124	0x3cfd32e0	0.030908048
125	0x3de803e5	0.11328868
126	0xbd8ec4bc	-0.06971118
127	0xbd7d0729	-0.061774407
128	0x3df9209b	0.12164422
129	0xbcbcc682	-0.023043875
130	0xbde7a764	-0.11311224
131	0x3d8107d7	0.063003235
132	0xbddb2822	-0.10701014
133	0x3ceeb4d8	0.029138967
134	0xbde0349f	-0.10947537
135	0xbd28d040	-0.041214228
136	0xbde32317	-0.11090677
137	0x3da7e767	0.08198433
138	0x3e0055b8	0.12532699
139	0xbcf669b1	-0.030079694
140	0xbdef44ba	-0.116830304
141	0xbdd9c6f5	-0.10633651
142	0xbd798684	-0.0609193
143	0x3dbf1cfa	0.09331699
144	0xbdd80ba9	-0.10549099
145	0xbdea2e0b	-0.11434563
146	0xbda0f00d	-0.07858286
147	0xbd350209	-0.044191394
148	0xbc593323	-0.013256821
149	0xbd800369	-0.062506504
150	0x3a7c97dc	0.0009635666
151	0x3d086e74	0.03330846
152	0xbdf7aa43	-0.12093022
153	0xbd4bef3d	-0.049788702
154	0xbdc266c5	-0.09492258
155	0x3ca11c90	0.01966694
156	0x3d266bae	0.040630035
157	0xbd18372f	-0.037162002
158	0x3dc14c7f	0.094384186
159	0x3dbeba88	0.09312922
160	0x3bd548c9	0.006508921
161	0xbd9f7fc0	-0.07788038
162	0x3d2dc4fa	0.04242418
163	0x3caf9bfd	0.021436686
164	0x3d3d63b8	0.046237677
165	0x3c82286b	0.015888413
166	0xbd0e9fe7	-0.034820464
167	0xbe03da23	-0.12876181
168	0xbd005825	-0.03133406
169	0x3dd28a32	0.10280265
170	0x3dd6353c	0.104593724
171	0x3da018ae	0.07817207
172	0xbda3a570	-0.07990539
173	0xbd4ffdc9	-0.050779138
174	0xbde4b081	-0.11166478
175	0x3de4f506	0.11179547
176	0x3d0c7b88	0.034297496
177	0xbd47abdc	-0.048747882
178	0x3d94841c	0.0725176
179	0x3d9b456d	0.07581601
180	0xbb43fbf4	-0.0029904814
181	0x3c12704c	0.0089379065
182	0x3de120d5	0.1099259
183	0x3c1dcf57	0.009631953
184	0xbca5cbee	-0.020238843
185	0x3da93e55	0.08263842
186	0xbdcc30be	-0.09970234
187	0xbd85b527	-0.06528693
188	0x3d8c618c	0.06854543
189	0xbd4ca2a6	-0.0499598
190	0x3dbbd8ad	0.09172187
191	0x3cf76dc3	0.030203706
192	0xbd2b5f17	-0.04183873
193	0x3c66e8e6	0.014093613
194	0x3de76a4e	0.11299573
195	0x3d204fcd	0.039138604
196	0x3de941c0	0.11389494
197	0x3dd7059d	0.104991175
198	0xbdd6937c	-0.10477349
199	0x3db67da1	0.089106806
200	0xbce714e7	-0.02820821
201	0x3d8482eb	0.06470283
202	0x3da722c5	0.08160929
203	0xbc9fcaad	-0.019505823
204	0xbddc4bae	-0.10756622
205	0x3d908274	0.07056132
206	0x3e00466d	0.12526865
207	0x3d336bf5	0.043804128
208	0x3dd60283	0.10449698
209	0x3d00e6e5	0.0314702
210	0xbb82004a	-0.0039673196
211	0x3dc8fa93	0.09813418
212	0x3dcba355	0.099432625
213	0x3db0df79	0.08636374
214	0x3dd341af	0.103152625
215	0x3e032eb6	0.12810788
216	0x3e04a12f	0.12952112
217	0x3d2530d8	0.040329784
218	0x3da5e70a	0.08100708
219	0xbd4a37e4	-0.049369708
220	0x3c8b9255	0.01703755
221	0xbd9c1b76	-0.07622425
222	0x3dba2bb3	0.09090366
223	0x3d07ccb4	0.033154204
224	0x3d2b48ab	0.04181735
225	0xbdb1b038	-0.08676189
226	0xbdddfd32	-0.10839309
227	0x3de1ec5a	0.110314086
228	0xbd02f85a	-0.031975128
229	0xbda0ca0f	-0.078510396
230	0x3ae44ce7	0.0017417938
231	0xbdb4390e	-0.08799945
232	0xb93e2177	-0.00018132279
233	0x3c1af5a3	0.009457978
234	0x3dcb68ec	0.09932122
235	0xbc0fc12d	-0.008774084
236	0xbd60510d	-0.054764796
237	0xbd2ecce7	-0.04267588
238	0xbdb62f48	-0.08895737
239	0x3b96cceb	0.004602065
240	0x3d82fe81	0.06396199
241	0x3df3ec09	0.119102545
242	0x3dc3b4bc	0.09555957
243	0x3d091af8	0.033472985
244	0xbb2fc754	-0.002682169
245	0xbb48618a	-0.0030575716
246	0xbd02be9c	-0.03192006
247	0xbd1fe107	-0.039032962
248	0x3d03965e	0.032125823
249	0x3d50a01d	0.050933946
250	0x3d1bd586	0.03804543
251	0xbdba0669	-0.09083254
252	0x3d4bb1c9	0.049730096
253	0x3dce568f	0.100751035
254	0x3c804c82	0.015661482
255	0xbcfcdeb7	-0.030867917

bias_hh_l0 f4 [256]
0	0xbcfa4e8a	-0.030555028
1	0x3e0ee830	0.1395576
2	0x3e0501f8	0.12989032
3	0x3b1b4db8	0.0023697447
4	0x3dea2a46	0.11433844
5	0x3d60445b	0.05475269
6	0xbd4951e8	-0.049150378
7	0xbd9dac50	-0.076988816
8	0x3dc7a86f	0.09748923
9	0x3df23e26	0.1182826
10	0x3d80ea89	0.06294734
11	0xbc6edd0a	-0.014579067
12	0xba4187f7	-0.0007382626
13	0xbdb56576	-0.08857243
14	0xbdb710dc	-0.089387625
15	0x3b959054	0.0045643244
16	0xbd766803	-0.060157787
17	0x3db20464	0.08692244
18	0xbc8c47f3	-0.017124152
19	0x3d67bf6f	0.05657905
20	0x3df6c10e	0.12048541
21	0x3e059429	0.130448
22	0xbd25131c	-0.040301427
23	0xbc519699	-0.012792253
24	0x3cf29c4d	0.029615546
25	0xbd865608	-0.06559378
26	0x3c610972	0.013735162
27	0xbdb48c15	-0.08815781
28	0x3d9dcf42	0.07705547
29	0xbde2e50e	-0.11078845
30	0x3c6841fd	0.014175889
31	0xbd8af2c3	-0.067845844
32	0xbcc971bc	-0.024590366
33	0x3da89531	0.08231581
34	0xbd8cc3b3	-0.06873264
35	0x3d9be38a	0.07611759
36	0x3dcff3c2	0.10153915
37	0xbd73a18c	-0.059480235
38	0xbdaceef6	-0.08444016
39	0xbb609487	-0.0034268217
40	0xbce2fccd	-0.027708435
41	0x3d4e4d38	0.05036661
42	0x3de05975	0.109545626
43	0xbd3b36e4	-0.045706645
44	0xbb1fea1f	-0.0024401022
45	0x3dd3b039	0.10336346
46	0x3e121940	0.14267445
47	0x3d1bd576	0.03804537
48	0x3c629066	0.013828373
49	0x3ca7f7e9	0.020503955
50	0x3d678a17	0.056528177
51	0x3d810ac3	0.06300881
52	0xbca05c0d	-0.019575143
53	0x3dfb9101	0.12283517
54	0x3c6de640	0.014520228
55	0xbc71111d	-0.014713553
56	0xbddd09db	-0.107928954
57	0x3a332605	0.00068339735
58	0x3d1dc1cb	0.038514894
59	0x3d480f62	0.048842795
60	0xb6add8d1	-5.1810425e-06
61	0xbc3ca58e	-0.011514081
62	0x3dd08dbc	0.10183284
63	0xbc9b2e54	-0.01894299
64	0xbdb631cb	-0.08896216
65	0x3d66e509	0.05637077
66	0x3dd3209e	0.103089556
67	0x3d1ed502	0.03877736
68	0x3d936bb3	0.07198276
69	0xbd57c790	-0.052680552
70	0x3da52310	0.08063328
71	0xbd8d8b9a	-0.069113925
72	0xbd80985e	-0.06279062
73	0x3df4b01b	0.11947652
74	0xbdc6106b	-0.096711
75	0xbdc5cd5c	-0.0965831
76	0x3d8b0fc0	0.067901134
77	0x3dc1a613	0.09455504
78	0xbccb8d6e	-0.024847712
79	0xbb974a7c	-0.0046170335
80	0xbd83e0da	-0.064393714
81	0x3d3a0e5c	0.04542385
82	0xbd26fba8	-0.04076734
83	0x3da37edd	0.079831816
84	0x3dc51646	0.09623389
85	0x3d428149	0.047486577
86	0x3ce57769	0.02801104
87	0x3a9869cf	0.0011628213
88	0xbde67aac	-0.112538666
89	0x3dc4106a	0.09573443
90	0xba61997a	-0.00086059386
91	0x3a83c780	0.0010053962
92	0xbda52947	-0.08064514
93	0xbb141cae	-0.0022600102
94	0x3db10a05	0.08644489
95	0xbdc33368	-0.09531289
96	0xbdb2f110	-0.08737385
97	0xbdd133f9	-0.10214991
98	0x3da2e09f	0.07952999
99	0x3dadceaf	0.084866874
100	0xbdb79115	-0.08963219
101	0xbdc31d41	-0.09527064
102	0xbd98713e	-0.07443474
103	0xbdc437da	-0.09580965
104	0xbd879115	-0.06619469
105	0x3e0bf35b	0.13667051
106	0x3c1c5eea	0.009544114
107	0x3d17a26c	0.037020132
108	0xbda2b1d3	-0.079440735
109	0x3d5611cd	0.05226307
110	0x3c94772c	0.018123232
111	0x3dc7701b	0.09738179
112	0x3dd62a71	0.10457314
113	0x3df79d17	0.120905094
114	0xbdb42ca3	-0.08797576
115	0xbcafd13b	-0.021462074
116	0x3c2ebfd6	0.010665854
117	0xbd80acea	-0.06282981
118	0x3e0b2cbc	0.13591284
119	0xbc489503	-0.012242558
120	0xbd594953	-0.053048443
121	0xbd788838	-0.060676783
122	0xbce87642	-0.028376702
123	0x3d68c328	0.05682674
124	0x3d36352e	0.04448431
125	0x3debe217	0.115177326
126	0xbda4b8db	-0.08043071
127	0x3db15e11	0.0866052
128	0x3dba599f	0.09099125
129	0x3d9ac8e5	0.07557849
130	0xbdc8a596	-0.09797208
131	0xbddea57e	-0.10871409
132	0x3dbe470a	0.092908934
133	0x3d01f27b	0.031725388
134	0x3d5bd946	0.053674005
135	0xbc3f9869	-0.011694052
136	0x3d7fdd97	0.062467184
137	0xbd9ff483	-0.07810309
138	0xbd418a7b	-0.047251206
139	0xbc7fd8a9	-0.015615621
140	0xbcdbbae2	-0.026822511
141	0x3d27058a	0.040776767
142	0xbcb5d273	-0.022195077
143	0xbdc754fe	-0.09733008
144	0xbd29883d	-0.041389693
145	0xbda9a5a3	-0.08283546
146	0x3bcd9661	0.00627403
147	0x3d8543e0	0.06507087
148	0x3c7c0112	0.015381115
149	0xbdada632	-0.08478965
150	0x3ab78efd	0.0014004406
151	0x3db09a22	0.086231485
152	0xbd4a2f95	-0.049361784
153	0xbd13b37d	-0.036059845
154	0x3da358f7	0.07975953
155	0x3c8b764a	0.017024178
156	0xbd853212	-0.06503691
157	0xbde121a6	-0.10992746
158	0x3d626faa	0.055282272
159	0xbdb16f72	-0.08663835
160	0x3dfb8288	0.12280756
161	0x3c5974ce	0.013272477
162	0xbdf81326	-0.12113027
163	0x3ddb3a2d	0.107044555
164	0xbdabf897	-0.08397024
165	0x3de3c4e3	0.111215375
166	0x3db0e3a9	0.08637173
167	0xbcb147f1	-0.02164075
168	0x3d7c0af8	0.061533898
169	0xbdc876b8	-0.09788269
170	0x39e92f53	0.00044476482
171	0xbbb5f6e0	-0.0055531114
172	0xbd4bb8f6	-0.04973694
173	0xbdd96b98	-0.10616225
174	0x3d7d5060	0.06184423
175	0x3d9eab48	0.07747513
176	0xbcc6cb1f	-0.024266778
177	0xbcc9088c	-0.024540208
178	0x3df38ebf	0.11892461
179	0xbbf857b7	-0.007578816
180	0x3de5e729	0.11225731
181	0x3cef166a	0.029185493
182	0x3de315c3	0.11088135
183	0x3d0d645b	0.034519535
184	0x3d31a05c	0.04336582
185	0x3db76ac3	0.0895591
186	0x3dc18cf6	0.09450714
187	0x3dbabda4	0.09118202
188	0xbde7a1ee	-0.113101825
189	0x3cc8053a	0.024416555
190	0xbda3a2e1	-0.07990051
191	0xbdf286ed	-0.11842141
192	0xbd7beba1	-0.06150401
193	0x3b3c5a9d	0.0028740533
194	0xbcddf003	-0.027091986
195	0xbce66f1b	-0.028129151
196	0xbc7cc49f	-0.0154277375
197	0x3bdb6716	0.0066956384
198	0x3cf38b4c	0.029729508
199	0xbda19fc7	-0.07891803
200	0xbdaa21ee	-0.08307253
201	0xbd45c3d6	-0.048282467
202	0x3de27bda	0.11058779
203	0x3d20a36b	0.039218348
204	0x3e037086	0.12835893
205	0xbcf477c7	-0.02984227
206	0xbd725a76	-0.0591683
207	0xbdb40813	-0.087906025
208	0x3d8e8a3c	0.0695996
209	0xbd715d46	-0.058926843
210	0xbd5ef7b3	-0.054435443
211	0x3deaa837	0.11457866
212	0x3d818c92	0.0632564
213	0x3d529f00	0.051421165
214	0xbb92dea1	-0.004482106
215	0x3d7f74a4	0.062367097
216	0x3cf5403d	0.029937858
217	0x3d16e131	0.036835853
218	0x3d00ed8d	0.031476546
219	0xbaf95a3e	-0.0019024087
220	0xbdea6ddf	-0.114467375
221	0x3dfcc2b7	0.123418264
222	0x3df73d15	0.12072197
223	0xb8e3d576	-0.00010863964
224	0xbdeee3d0	-0.116645455
225	0xbd6214fb	-0.05519579
226	0xbdc38bc2	-0.09548141
227	0x3ddb2f48	0.107023776
228	0xbd594e0d	-0.05305295
229	0x3c6ae154	0.014335949
230	0x3c874a21	0.01651484
231	0x3d517097	0.051132765
232	0xbd8f662e	-0.07001911
233	0x3d6de1fe	0.05807685
234	0x3d07adf5	0.033124883
235	0x3db1369a	0.086529925
236	0x3ce36dd7	0.027762337
237	0x3d226b90	0.03965336
238	0xbd25ad28	-0.040448338
239	0x3d5f0907	0.05445197
240	0xbd870b43	-0.06593945
241	0xbdd01d69	-0.101618595
242	0x3dfdba40	0.1238904
243	0x3d73b939	0.059502814
244	0xbd334df6	-0.04377552
245	0x3dcd0036	0.10009806
246	0x3cde8c76	0.027166586
247	0x3d9b7f36	0.07592623
248	0x3d1a76b1	0.03771085
249	0x3af8af9a	0.0018973232
250	0x3b37afa9	0.0028028286
251	0xba0bad27	-0.0005328231
252	0xbd301acb	-0.0429943
253	0x3d1dd94b	0.038537305
254	0x3b0439c2	0.0020176028
255	0xbda71fd9	-0.08160371

weight_ih_l0_reverse f4 [256, 3]
0	0x3d69e53e	0.057103388
1	0xbcf1670b	-0.02946808
2	0xbd551350	-0.05202037
3	0xbde14994	-0.11000362
4	0xbdfb10bf	-0.122590534
5	0xbdfa5f68	-0.122252285
6	0xbe32088e	-0.17386076
7	0xbd96a36f	-0.07355391
8	0xbdc95703	-0.09831049
9	0x3dccf6d4	0.10008016
10	0x3d67f3f3	0.056629132
11	0xbd269959	-0.040673587
12	0xbd70e266	-0.05880966
13	0xbda37c3a	-0.07982679
14	0x3dc618e4	0.09672716
15	0xbd489ce9	-0.048977766
16	0xbd17253b	-0.03690074
17	0xbce1a922	-0.02754647
18	0xbe06e833	-0.13174514
19	0x3d5544e8	0.052067667
20	0xbdbeb63b	-0.093121015
21	0xbd088094	-0.033325747
22	0x3de47179	0.11154456
23	0xbdbd2d73	-0.092371844
24	0xbe103d54	-0.14085895
25	0xbdcc2d71	-0.09969605
26	0xbdd3f568	-0.10349542
27	0xbdb2c520	-0.08729005
28	0x3d2031a6	0.03910985
29	0x3d0450d6	0.032303654
30	0xbd5b8d6a	-0.05360166
31	0x3d93ff73	0.072264574
32	0x3d8ef400	0.06980133
33	0xb996219d	-0.00028635273
34	0x3dbeeda2	0.093226686
35	0xbd820164	-0.063479215
36	0xbdebc317	-0.1151182
37	0x3e117474	0.1420458
38	0x3d1c2713	0.0381232
39	0x3d4b44d0	0.04962617
40	0xbdc14050	-0.09436095
41	0xbd90e7a2	-0.070754305
42	0xbd336c2a	-0.043804325
43	0x3c4883aa	0.012238422
44	0x3c0b4525	0.008500372
45	0x3e3ab98f	0.18234847
46	0xbcad609b	-0.02116423
47	0xbdf661ed	-0.120303966
48	0x3d23300d	0.039840747
49	0xbdf6cffe	-0.1205139
50	0x3870718f	5.732622e-05
51	0x3e2359aa	0.15952173
52	0xbae4eebd	-0.0017466169
53	0x3c8c168e	0.017100599
54	0x3df9a3e3	0.12189462
55	0xbdc70ac3	-0.097188495
56	0x3d64fd0e	0.055905394
57	0x3be769b1	0.00706216
58	0xbd4a6ae7	-0.049418356
59	0x3d48cdf8	0.049024552
60	0xbd6dcfe6	-0.058059596
61	0x3d43fed0	0.04785043
62	0x3db7fcd3	0.08983769
63	0x3bc0a271	0.0058787395
64	0xbdca37e2	-0.0987394
65	0x3d088359	0.033328388
66	0x3c2d38bd	0.0105726095
67	0xbd5b277d	-0.053504456
68	0xbcc2792c	-0.02373942
69	0xbe18d1f2	-0.14923838
70	0xbdc7ec88	-0.09761912
71	0x3d571447	0.052509572
72	0xbe0bcdf8	-0.1365279
73	0x3da92c57	0.0826041
74	0x3df4d84a	0.11955316
75	0xbceeb557	-0.029139204
76	0x3dcf5f3f	0.101255886
77	0xbd81cc46	-0.0633779
78	0x3c5086f7	0.012727491
79	0x3b879eba	0.0041387947
80	0xbd3e0ad8	-0.04639706
81	0xbc9790d1	-0.018501671
82	0x3d91b2a1	0.07114149
83	0xbd6b0bff	-0.057384487
84	0x3d5bbee3	0.05364884
85	0x3df41b08	0.11919218
86	0xbde295be	-0.11063717
87	0x3d755cd0	0.059902966
88	0x3d4b57ea	0.04964439
89	0x3d5b33c1	0.053516153
90	0xbcf86de0	-0.03032583
91	0x3db00a44	0.08595708
92	0xbda74833	-0.08168068
93	0x3d321fb0	0.04348725
94	0xbd94c3b7	-0.07263892
95	0x3d6646ce	0.05621987
96	0x3d6af6b7	0.05736419
97	0x3da38ab8	0.07985443
98	0xbcc094c7	-0.023508443
99	0xbd960fc7	-0.07327228
100	0xbbd42df7	-0.006475206
101	0xbd552699	-0.052038763
102	0xbd85b3d8	-0.06528443
103	0x3ddfb41b	0.10923024
104	0xbde1ec80	-0.11031437
105	0x3cbc5a61	0.022992315
106	0x3c292703	0.0103242425
107	0x3dc96b09	0.098348685
108	0x3d9fc335	0.07800905
109	0xbda079b2	-0.078357115
110	0xbe0633fa	-0.13105765
111	0xbdab3882	-0.083603874
112	0xbca5a565	-0.020220468
113	0x3a7971e5	0.0009515568
114	0xbbb3cf88	-0.005487386
115	0x3a9ad818	0.0011813669
116	0xbdaa19d3	-0.08305707
117	0x3d2b7cd5	0.041867096
118	0xbe03a809	-0.12857069
119	0x3d8c78be	0.06858967
120	0x3d844a4b	0.06459483
121	0x3dd4f1bb	0.10397669
122	0x3dc2906e	0.09500204
123	0x3b5507c7	0.0032505856
124	0x3d1b4e1f	0.0379163
125	0xbd15b9b4	-0.036554053
126	0xbd8d6bbf	-0.069053166
127	0xbddadb27	-0.10686331
128	0x3d82e038	0.063904226
129	0xbdb041a4	-0.0860627
130	0xbd7dec33	-0.061992835
131	0x3d1827d4	0.037147358
132	0x3d7c3f8c	0.06158404
133	0xbcb705f8	-0.022341713
134	0xbc6e1601	-0.014531613
135	0xbd5e67f6	-0.054298364
136	0xbdbeaf87	-0.09310823
137	0x3d4c56bd	0.049887408
138	0x3d702aed	0.058634687
139	0xbc5c5e08	-0.013450153
140	0x3e02724e	0.12738916
141	0x3da60933	0.08107223
142	0xbdaf31f4	-0.0855445
143	0xbd9044af	-0.0704435
144	0x3d6b5ee7	0.057463553
145	0x3da445d0	0.08021128
146	0xbcea24f1	-0.028582068
147	0x3db45d49	0.08806855
148	0xbd6ec4b9	-0.058293078
149	0xbd0495f7	-0.03236958
150	0x3d255728	0.04036632
151	0x3d16b82a	0.036796726
152	0x3c47ea99	0.0122019285
153	0xbd8a9af8	-0.06767839
154	0xbbdc2ce8	-0.0067192204
155	0x3de1f4bf	0.1103301
156	0x3e07d125	0.13263376
157	0xbc3bb6b3	-0.011457133
158	0xbd4e04aa	-0.050297417
159	0x3d9814d6	0.07425849
160	0x3baf023d	0.005340843
161	0x3dca801d	0.09887717
162	0x3e592007	0.21203624
163	0x3d9c5f15	0.07635323
164	0x3d1f73f5	0.038928945
165	0x3d175663	0.03694762
166	0x3d6cc5ca	0.057805814
167	0x3d33c90c	0.043892905
168	0x3c5a10cd	0.01330967
169	0xbcd3a504	-0.025835522
170	0x3da71029	0.08157379
171	0xbe3393e2	-0.17536882
172	0x3dcc0f27	0.099638276
173	0x3d271c66	0.040798567
174	0x3ca32a89	0.019917743
175	0x3d8b45c6	0.068004176
176	0x3d9afa60	0.075672865
177	0x3dc1684d	0.09443722
178	0x3d98f350	0.07468283
179	0x3d55730d	0.052111674
180	0xbcad13fa	-0.02112769
181	0x3b3984c7	0.0028307901
182	0xbd7361f9	-0.059419606
183	0x3d894e67	0.06704407
184	0xbdc17dfa	-0.09447856
185	0xbde6b604	-0.112651855
186	0xbd3487ea	-0.04407493
187	0xbd723700	-0.059134483
188	0x3da68dff	0.08132552
189	0x3cc29412	0.023752246
190	0x3d96fab9	0.0737204
191	0x3c9ea3e1	0.019365253
192	0x3d6d3526	0.057912014
193	0x3d6cccea	0.05781261
194	0xbd16fa37	-0.036859717
195	0x3c1df467	0.00964079
196	0xbdef1ab2	-0.116750136
197	0x3dfd01ba	0.12353845
198	0x3d780728	0.0605537
199	0xbca6aa7b	-0.020344963
200	0xbd158138	-0.036500186
201	0xbcbf2a1b	-0.023335507
202	0x3c3a2599	0.011361503
203	0xbd676596	-0.056493364
204	0xbcaf5f87	-0.021407856
205	0xbdbd8fb8	-0.09255928
206	0xbdc37455	-0.09543673
207	0x3d195669	0.037435923
208	0xbdafb595	-0.08579556
209	0xbcf136e4	-0.02944512
210	0x3c841b1f	0.016126214
211	0xbd8c3229	-0.06845505
212	0x3d069885	0.032860298
213	0x3e0a3e2a	0.13500276
214	0x3d137cbe	0.036007635
215	0x3c46a154	0.012123425
216	0x3ddd8221	0.10815836
217	0xbe070278	-0.13184536
218	0xbdcea2db	-0.10089656
219	0xbcc37162	-0.023857776
220	0xbd832bf1	-0.064048655
221	0x3ddf2834	0.1089634
222	0xbd7efd74	-0.06225343
223	0xbdadb06a	-0.08480914
224	0xbde1c093	-0.11023059
225	0x3df692a9	0.12039692
226	0x3db81764	0.089888364
227	0xbd75cf89	-0.060012374
228	0x3df3730e	0.11887179
229	0xbda9e3e5	-0.082954206
230	0xbc8fb163	-0.01754064
231	0x3df21da7	0.11822062
232	0x3c847ee7	0.016173793
233	0x3c08df4c	0.008354019
234	0x3cddb12d	0.027062023
235	0xbdaab850	-0.08335936
236	0xbd958d43	-0.07302334
237	0x3d8593b6	0.06522314
238	0xbcc3ed9e	-0.023917016
239	0xbd524529	-0.051335488
240	0x3e005bc2	0.12535003
241	0x3ca664f9	0.02031182
242	0x3db5f036	0.08883707
243	0x3cb21fec	0.021743737
244	0x3c10650b	0.008813153
245	0x3dae1024	0.08499172
246	0xbd6423fc	-0.05569838
247	0xbccb6357	-0.024827642
248	0x3c424537	0.011857322
249	0x3dadc9f5	0.08485786
250	0xbc5178d3	-0.012785154
251	0xbd1d4778	-0.038398236
252	0x3c11fd6d	0.008910519
253	0x3da57a2a	0.080799416
254	0x3b9aeafe	0.0047277203
255	0x3e1dafa1	0.15399028

weight_hh_l0_reverse f4 [256, 64]
0	0x3d594ad9	0.053049896
1	0x3dc4aebb	0.0960364
2	0xbd8bea06	-0.06831746
3	0x3dbb0358	0.09131497
4	0xbdce313e	-0.10067986
5	0x3d8dfc1c	0.06932852
6	0x3c3d5a33	0.01155715
7	0xbd5fe552	-0.054662056
8	0x3d091523	0.033467423
9	0xbd65b3fe	-0.056079857
10	0x3d8cf725	0.068830766
11	0x3d1d4147	0.03839233
12	0xbdbb0682	-0.09132101
13	0xbd22eb9e	-0.039775483
14	0xbd816786	-0.06318574
15	0x3d1c4dc4	0.0381601
16	0x3d57660c	0.052587554
17	0x3ddd22cb	0.10797652
18	0x3d227cc0	0.039669752
19	0x3d160ec4	0.036635175
20	0xbd50e344	-0.050997987
21	0xbd6de0e9	-0.05807582
22	0x3c4f33b4	0.012646604
23	0xbd0119f0	-0.031518877
24	0x3d6ea8cb	0.058266442
25	0x3dee5324	0.116369516
26	0x3e023b71	0.12717988
27	0x3d82cb06	0.0638638
28	0xbdbbbd03	-0.091669105
29	0x3dbd21aa	0.092349365
30	0x3c39d3ab	0.0113419695
31	0x3dbbbec1	0.09167243
32	0x3d4d76d8	0.050162166
33	0xbe07d6c6	-0.13265523
34	0xbde1faf6	-0.11034195
35	0xbdbf72e1	-0.09348083
36	0x3d2c1430	0.04201144
37	0xbd843626	-0.064556405
38	0xbd9b1920	-0.075731516
39	0x3dc64a55	0.096821465
40	0x3ca5564c	0.020182751
41	0x3da0ca65	0.07851104
42	0x3e05bb73	0.13059787
43	0xbdc24e80	-0.09487629
44	0xbd8b0b6a	-0.067892864
45	0x3cd580e2	0.026062433
46	0xbdca5054	-0.098786026
47	0x3b95c4b5	0.0045705684
48	0xbe09f6a8	-0.13472998
49	0x3db505d0	0.08838999
50	0xbd99278f	-0.07478248
51	0x3dfbb55b	0.1229045
52	0x3e036ee6	0.12835273
53	0x3d46b0e2	0.048508532
54	0x3dd8383b	0.105576
55	0x3d2e002c	0.042480633
56	0x3db0fb3a	0.08641668
57	0x3ce46394	0.027879514
58	0x3dffcc2b	0.12490114
59	0xbc3eb4c2	-0.011639776
60	0x3d26270b	0.040564578
61	0x3dbdde2b	0.09270891
62	0xbdc586c1	-0.09644843
63	0xbdef2769	-0.11677439
64	0xbd3cf5a9	-0.046132717
65	0x3d836eb5	0.064176
66	0xbce72035	-0.0282136
67	0xbdcefac4	-0.101064235
68	0xbdb3bf1f	-0.08776688
69	0xbdcc7aa1	-0.09984327
70	0x3d0bb6ee	0.034110002
71	0xbd90188b	-0.07035931
72	0xbddfe374	-0.10932055
73	0xbdc2c657	-0.095104866
74	0xbdbbe1f0	-0.091739535
75	0x3dca5451	0.09879363
76	0xbc916483	-0.017748123
77	0x3dab457f	0.08362865
78	0xbdb28024	-0.08715847
79	0xbd1c514e	-0.038163476
80	0xbd827069	-0.06369097
81	0xbded1740	-0.115767
82	0xbc52aaab	-0.012858073
83	0xbcded9c2	-0.027203444
84	0xbdb83697	-0.08994787
85	0xbd9996ed	-0.0749949
86	0x3d11dec2	0.03561283
87	0x3dc07f12	0.09399237
88	0xbcc28add	-0.023747856
89	0xbd9f9020	-0.077911615
90	0x3deeb3bd	0.11655376
91	0x3b67fb66	0.0035397648
92	0xbe0d22cd	-0.13782807
93	0xbd342a6c	-0.04398577
94	0xbd2aa105	-0.041657466
95	0x3ce3ecd1	0.027822884
96	0x3cc65a6f	0.024213044
97	0x3db94ffe	0.090484604
98	0x3c10fcf1	0.008849368
99	0xbddeffca	-0.10888632
100	0x3d5e3642	0.054250963
101	0x3cf0bf89	0.029388206
102	0xbcd1cd09	-0.025610464
103	0xbe087474	-0.13325673
104	0x3e015956	0.12631735
105	0xbde4fbf3	-0.11180868
106	0x3dfecd65	0.1244152
107	0xbde2d103	-0.11075022
108	0x3c97f7d9	0.0185508
109	0x3d30efc4	0.04319741
110	0x3d9508ee	0.07277094
111	0x3d54138d	0.051776458
112	0x3acb09f3	0.0015490636
113	0x3d889fca	0.06671102
114	0x3dea7dec	0.11449799
115	0x3c00a9fd	0.007853028
116	0x3ccdac93	0.025106704
117	0xbd78bed1	-0.06072885
118	0xbd1832f1	-0.037157957
119	0xbdd7abda	-0.10530825
120	0x3d80630e	0.06268893
121	0x3de45fc9	0.11151082
122	0x3df5fa96	0.12010686
123	0x3de7cd77	0.11318486
124	0x3d87dee8	0.06634313
125	0xbd83c7f3	-0.06434622
126	0xbd81aba5	-0.06331567
127	0xbcd05c7d	-0.025434727
128	0xbc227807	-0.009916312
129	0x3d881cea	0.0664614
130	0xbc82d6e4	-0.015971608
131	0x3d2f4553	0.042790722
132	0xbda90ab5	-0.08253995
133	0x3d21ecff	0.039532658
134	0x3c221108	0.009891756
135	0x3de50d53	0.11184182
136	0xbd4750f8	-0.048661202
137	0xbd90b23a	-0.07065244
138	0x3d1e1d7b	0.038602334
139	0xbdf0ae37	-0.11751979
140	0x3c3532c5	0.011059468
141	0xbd8d751e	-0.06907104
142	0x3d6b58ef	0.05745786
143	0xbe001832	-0.1250923
144	0x3cf5b0f2	0.0299916
145	0xbd8e49ce	-0.06947671
146	0xbb155824	-0.0022788132
147	0x3d4b750a	0.049672164
148	0x3c264bcc	0.010149907
149	0x3d40dbe0	0.04708469
150	0xbdd0feb1	-0.102048285
151	0x3dc56893	0.096390866
152	0x3ccdeb12	0.025136504
153	0xbd835d92	-0.064143315
154	0x3d2db81e	0.042411916
155	0xbc97d8df	-0.01853603
156	0xbdaa54f1	-0.083169825
157	0x3cce83c3	0.025209313
158	0x3db97509	0.09055526
159	0x3c181e8d	0.009284628
160	0xbd5e1a63	-0.054224383
161	0xbdf7045e	-0.1206138
162	0xbd9700f9	-0.073732324
163	0x3de909b2	0.11378802
164	0xbd7b21e2	-0.06131161
165	0x3d90ed82	0.07076551
166	0x3dc45780	0.09587002
167	0xbde665b7	-0.11249869
168	0xbdc1c84b	-0.09462031
169	0xbda9cdd2	-0.0829121
170	0x3ddbebac	0.1073831
171	0xbd949543	-0.07255032
172	0xbdbb8719	-0.09156627
173	0x3d0bcb14	0.034129217
174	0x3dc29651	0.09501327
175	0xbb21ed41	-0.0024708065
176	0xbda7911a	-0.08181973
177	0x3de8afaf	0.11361634
178	0x3c84703e	0.016166802
179	0x3e18cb2e	0.14921257
180	0x3e07639d	0.13221593
181	0x3df93d23	0.12169864
182	0x3ddd9dfe	0.1082115
183	0x3dffefd2	0.12496914
184	0x3dcb1261	0.09915615
185	0x3d7fff58	0.062499374
186	0xbc4727d4	-0.012155492
187	0x3d7a4a20	0.061105847
188	0x3c50a628	0.012734927
189	0x3cbcfc4c	0.023069523
190	0xbe059905	-0.13046654
191	0x3c2fa2a3	0.010719928
192	0xbd45ee34	-0.04832287
193	0x3cda0e7d	0.026618237
194	0x3d2cd692	0.042196818
195	0xbd90ecfc	-0.07076451
196	0xbd996938	-0.07490772
197	0x3d98042d	0.074226715
198	0x3dec84c8	0.115487635
199	0x3c1de10f	0.009636178
200	0xbcc3c73c	-0.023898713
201	0xbe047073	-0.12933521
202	0x3cf4c096	0.029876988
203	0xbcc2a3fc	-0.023759834
204	0xbc9cbaab	-0.019131979
205	0x3ca6b952	0.02035204
206	0xbdde38ed	-0.108507015
207	0x3dd670cd	0.10470734
208	0xbdcbf425	-0.09958676
209	0x3d3059e4	0.043054476
210	0x3d8e07b1	0.06935061
211	0x3b53ae2d	0.0032299862
212	0xbd54f611	-0.05199248
213	0x3da95ff6	0.08270256
214	0xbd1b5715	-0.037924845
215	0xbc986480	-0.01860261
216	0xbcda5911	-0.026653798
217	0xbbe25874	-0.006907517
218	0xbdac88d2	-0.08424534
219	0xbd0f70b2	-0.035019584
220	0xbe11aa20	-0.14225054
221	0x3d9015fd	0.07035444
222	0x3d7cec6b	0.061748903
223	0x3dab322b	0.08359178
224	0x3dac03bd	0.083991505
225	0x3c31b69e	0.010846762
226	0xbd344128	-0.04400745
227	0xbd2ffbc9	-0.04296473
228	0xbd93db47	-0.07219558
229	0xbdce887f	-0.10084628
230	0x3b084d0f	0.0020797884
231	0x3d431fb2	0.04763765
232	0x3d8d6496	0.06903951
233	0x3c958b00	0.018254757
234	0xbd18e5f0	-0.03732866
235	0xbc98d0e9	-0.018654304
236	0xbd72518a	-0.059159793
237	0x3b2b8cc7	0.002617644
238	0xbd026685	-0.03183605
239	0x3c862a77	0.01637767
240	0x3dae2c44	0.08504537
241	0x3c35b157	0.011089644
242	0xbd4a28dc	-0.049355373
243	0x3d084e12	0.03327758
244	0xbd845942	-0.06462337
245	0xbde0ce05	-0.10976795
246	0x3de84571	0.1134137
247	0xbada98b1	-0.0016677586
248	0xbe1b51af	-0.15167879
249	0x3dc81e10	0.09771359
250	0xbd08df89	-0.033416305
251	0x3d1b28b6	0.03788062
252	0xbd8c0cab	-0.06838354
253	0x3db812fb	0.08987995
254	0x3e10cfa3	0.14141707
255	0xbd657f88	-0.056029826

bias_ih_l0_reverse f4 [256]
0	0x3e0f0b32	0.13969114
1	0x3d8cb2a7	0.06870013
2	0x3dfaab95	0.12239758
3	0x3e13dd19	0.14439811
4	0x3cf3774c	0.029719971
5	0xbcf7f68f	-0.030268935
6	0xbcc77e55	-0.024352232
7	0x3d92a2c8	0.07159954
8	0xbd3347fb	-0.043769818
9	0x3e1d62b7	0.15369688
10	0x3e009e0f	0.12560295
11	0x3d0a620a	0.033784904
12	0x3d37aabf	0.04484057
13	0x3da19298	0.07889289
14	0x3d9d1094	0.07669178
15	0x3e0ad0b5	0.13556178
16	0x3e085696	0.1331428
17	0x3c255e7f	0.01009333
18	0xbcc61c33	-0.024183368
19	0x3d124819	0.03571329
20	0xbce7ffbc	-0.028320186
21	0xbdc91fcb	-0.09820517
22	0x3e164d78	0.1467799
23	0x3cd110ed	0.025520766
24	0x3dd92e65	0.10604552
25	0x3e13cd8b	0.14433877
26	0x3d6b94fe	0.057515137
27	0xbd58762d	-0.052847076
28	0xbc6a404b	-0.014297555
29	0x3d196fda	0.037460186
30	0xbd570aa2	-0.052500375
31	0xbda75ff0	-0.081725955
32	0xbd813cda	-0.06310435
33	0x3dc4624b	0.095890604
34	0x3dd3aace	0.10335313
35	0xbdb19218	-0.08670443
36	0x3def8146	0.11694579
37	0x3d026fe2	0.03184498
38	0x3d9e9ea7	0.07745104
39	0xbd25e064	-0.0404972
40	0x3d029c57	0.03188738
41	0xbd8c5b71	-0.068533786
42	0xbd37b267	-0.044847872
43	0x3d14f3e5	0.03636541
44	0x3d6f375b	0.0584024
45	0xbde0bc22	-0.109733835
46	0xbda3ced2	-0.07998432
47	0x3dc58c5c	0.09645912
48	0x3e034aac	0.12821454
49	0xbc6a5463	-0.014302346
50	0x3d156757	0.036475506
51	0x3ddac7c1	0.10682631
52	0x3df24fa3	0.11831596
53	0x3e29b552	0.16573074
54	0x3bca33f2	0.006170743
55	0xbdb79a0c	-0.08964929
56	0xbdb267ec	-0.08711228
57	0x3dcba995	0.099444546
58	0xbd96a11a	-0.073549464
59	0x3a75609b	0.00093604036
60	0x3d001127	0.031266358
61	0x3cf402c3	0.029786473
62	0xbd0ae16a	-0.033906378
63	0x3ddaa469	0.1067589
64	0xbcfb3bd6	-0.03066818
65	0x3a667add	0.0008792112
66	0xbdcaa506	-0.09894757
67	0x3ce3702a	0.027763445
68	0x3be5fbcb	0.0070185415
69	0x3ddb4f7c	0.1070852
70	0xbc2fda50	-0.010733202
71	0x3dcec0b9	0.10095353
72	0xbd040bc4	-0.032237783
73	0x3d95587a	0.07292266
74	0xbdad89a4	-0.084735185
75	0x3db9ca51	0.09071792
76	0x3cbca1bd	0.023026342
77	0x3dd1d58a	0.102458075
78	0x3ca27eb2	0.019835804
79	0xbda42674	-0.08015147
80	0x3dcc0207	0.09961324
81	0x3d03de9b	0.032194715
82	0x3c918e3f	0.017768024
83	0xbc372297	-0.01117768
84	0x3bcde779	0.006283697
85	0xbdd1997c	-0.10234353
86	0xbcbf5589	-0.023356216
87	0xbdb12ccb	-0.08651122
88	0xbd242b57	-0.040080395
89	0xbd47f3af	-0.04881638
90	0xbd814f0e	-0.063139066
91	0xbdf19e96	-0.11797826
92	0xbc05b266	-0.008160209
93	0x3dc416c9	0.095746584
94	0x3dae9628	0.08524734
95	0x3c0f4563	0.00874457
96	0x3d9a4071	0.075318225
97	0x3dd817c8	0.10551411
98	0xbd0e79ac	-0.034784004
99	0x3c543dac	0.012954157
100	0xbd5b9471	-0.05360836
101	0x3ddd299d	0.10798953
102	0xbd8754f7	-0.06608003
103	0x3dc65840	0.09684801
104	0xbd79dbad	-0.061000515
105	0x3cf9eb95	0.030507842
106	0x3dc51e3b	0.09624907
107	0xbd9ba48c	-0.07599744
108	0xbae287c9	-0.0017282899
109	0x3c08de38	0.008353762
110	0xbdcc3f1f	-0.09972977
111	0x3d45170c	0.048117682
112	0x3d0c0027	0.034179833
113	0x3bfd7803	0.007735254
114	0xbdbd0e13	-0.092312
115	0xbccb45b3	-0.024813509
116	0x3cf3f73b	0.029780975
117	0x3cdb3454	0.02675835
118	0x3d3ca5b2	0.046056457
119	0xbd8105f7	-0.06299966
120	0x3ddfa2f5	0.109197535
121	0xbdccb1ef	-0.09994876
122	0x39ce3dff	0.00039337573
123	0x3e0c8a38	0.13724601
124	0x3db47ca1	0.088128336
125	0x3b8951c0	0.0041906536
126	0xbda0355e	-0.07822679
127	0x3dedb376	0.11606495
128	0xbd0160bf	-0.031586405
129	0xbced4e87	-0.028968109
130	0xbd165894	-0.03670557
131	0xbdf2f400	-0.118629456
132	0xbc835d79	-0.016035782
133	0xbd39069e	-0.045172326
134	0xbcda189e	-0.026623067
135	0x3d18b0d3	0.037278008
136	0x3db2ab37	0.08724063
137	0xbdc7252e	-0.09723888
138	0x3da3b6b5	0.07993833
139	0xbdb84fa6	-0.08999567
140	0x3d92f3ef	0.07175433
141	0x3d7deb59	0.061992023
142	0xbdcde84e	-0.10054074
143	0xbcb19aaa	-0.021680195
144	0xbb955169	-0.004556824
145	0x3dfdfc32	0.12401618
146	0xbd9f3567	-0.077738576
147	0x3dfaee6c	0.122525066
148	0x3cab1f24	0.020888872
149	0xbe063e89	-0.13109793
150	0xbdf7ea41	-0.12105227
151	0xbdf6f486	-0.12058358
152	0x3d1c0b0e	0.03809648
153	0xbd826a74	-0.063679606
154	0x3dfa3d1d	0.12218688
155	0x3de27340	0.110571384
156	0xbc62e111	-0.013847605
157	0xbd39b75b	-0.045340877
158	0x3d5eeb35	0.05442353
159	0xbba0a1fc	-0.0049021225
160	0x3dda066a	0.10645755
161	0x3e04117d	0.12897296
162	0xbd874885	-0.06605629
163	0xbd5d7cff	-0.054074284
164	0xbd8b95d8	-0.0681569
165	0xbd405940	-0.046960115
166	0xbd879f06	-0.06622128
167	0xbdc03617	-0.09385317
168	0x3d00777e	0.031363957
169	0x3d70027f	0.05859613
170	0x3dbe904f	0.093048684
171	0x3c975664	0.018473811
172	0x3c234c4d	0.009966922
173	0xbce38b37	-0.027776344
174	0xbbb4b1e9	-0.0055143726
175	0x3c18c25e	0.0093236845
176	0xbd4a4307	-0.04938033
177	0xbd08703b	-0.033310156
178	0x3d8e6686	0.069531485
179	0xbd88ffcd	-0.06689415
180	0xbaa82c97	-0.0012830672
181	0x3b72caf1	0.0037047232
182	0x3e1b72d5	0.15180524
183	0x3d229e21	0.039701585
184	0xbdab2f59	-0.0835864
185	0x3cb5699e	0.022145089
186	0x3df17213	0.11789336
187	0x3a0a2a2c	0.00052705663
188	0xbdf1e63b	-0.11811491
189	0xbdb97e0e	-0.09057246
190	0x3dc2d96f	0.095141284
191	0xbd894e2b	-0.067043625
192	0x3cfdb852	0.03097168
193	0xbda92f34	-0.082609564
194	0x3d0dc4a1	0.034611348
195	0x3d40c423	0.04706205
196	0x3d79a509	0.060948405
197	0x3d66725f	0.056261417
198	0xbdb8e394	-0.09027782
199	0xbc4ca1f3	-0.012489784
200	0x3c29e8c2	0.010370435
201	0x3d18e011	0.03732306
202	0x3cf75012	0.030189548
203	0xbdcdcee0	-0.10049224
204	0xbd821486	-0.06351571
205	0xbda05950	-0.07829535
206	0x3dad3f1f	0.08459305
207	0x3d3ce684	0.046118274
208	0xbd4bfb14	-0.049799994
209	0x3d90453f	0.07044458
210	0x3e16715f	0.14691685
211	0xbd94f19b	-0.07272645
212	0xbd71186d	-0.058861185
213	0xbc505663	-0.012715909
214	0x3e0fc516	0.14040026
215	0xbd94febc	-0.07275149
216	0x3c73bf66	0.014877176
217	0xbd581af9	-0.052760098
218	0xbd52b90a	-0.051446
219	0x3ddc856a	0.10767634
220	0xbd9d32f0	-0.07675731
221	0x3dcea573	0.10090151
222	0xbd08f070	-0.033432424
223	0x3d3c7767	0.04601231
224	0x3d52690c	0.05136971
225	0xbd636076	-0.055511914
226	0x3dc16127	0.094423585
227	0xbd2d3a95	-0.042292196
228	0xbc3a6388	-0.011376269
229	0x3d6fcc9f	0.05854475
230	0x3d3b32c2	0.045702703
231	0xb8c5aed0	-9.4262534e-05
232	0x3db92e56	0.09042041
233	0x3cf2c134	0.029633142
234	0x3d40f04d	0.04710417
235	0xbd8d02c7	-0.06885295
236	0x3e06bb99	0.131575
237	0x3caa5d32	0.020796392
238	0xbc62b7b6	-0.013837745
239	0x3df21a1c	0.11821386
240	0x3dae5196	0.08511655
241	0xbd39d033	-0.04536457
242	0xbdefb39b	-0.11704179
243	0xbd677eaa	-0.05651728
244	0x3e030ab4	0.12797052
245	0xbd8b5f6d	-0.068053104
246	0x3e120090	0.14258027
247	0x3c309994	0.010778803
248	0xbd7c7186	-0.061631702
249	0xbd9a981b	-0.07548543
250	0x3bfb9eac	0.0076788273
251	0x3ceee80e	0.029163387
252	0x3db9a150	0.09063971
253	0x3d557252	0.052110977
254	0x3ba6eaba	0.0050938996
255	0xbd7eb441	-0.062183622
